…
Len  {'clean': <tf.Tensor 'ParseExample/ParseExampleV2:0' shape=(16, 160000) dtype=float32>, 'noisy': <tf.Tensor 'ParseExample/ParseExampleV2:1' shape=(16, 160000) dtype=float32>}
Model: "demucs"
__________________________________________________________________________________________________
 Layer (type)                   Output Shape         Param #     Connected to                     
==================================================================================================
 input_layer (InputLayer)       [(None, 160000, 1)]  0           []                               
                                                                                                  
 tf.math.reduce_std (TFOpLambda  (None, 1, 1)        0           ['input_layer[0][0]']            
 )                                                                                                
                                                                                                  
 tf.__operators__.add (TFOpLamb  (None, 1, 1)        0           ['tf.math.reduce_std[0][0]']     
 da)                                                                                              
                                                                                                  
 tf.math.truediv (TFOpLambda)   (None, 160000, 1)    0           ['input_layer[0][0]',            
                                                                  'tf.__operators__.add[0][0]']   
                                                                                                  
 tf.compat.v1.pad (TFOpLambda)  (None, 160085, 1)    0           ['tf.math.truediv[0][0]']        
                                                                                                  
 tf.reshape (TFOpLambda)        (None, 160085, 1)    0           ['tf.compat.v1.pad[0][0]']       
                                                                                                  
 tf.compat.v1.nn.conv1d (TFOpLa  (None, 160085, 1)   0           ['tf.reshape[0][0]']             
 mbda)                                                                                            
                                                                                                  
 tf.reshape_1 (TFOpLambda)      (None, 160085, 1)    0           ['tf.compat.v1.nn.conv1d[0][0]'] 
                                                                                                  
 tf.stack (TFOpLambda)          (None, 160085, 2, 1  0           ['tf.compat.v1.pad[0][0]',       
                                )                                 'tf.reshape_1[0][0]']           
                                                                                                  
 tf.reshape_2 (TFOpLambda)      (None, 320170, 1)    0           ['tf.stack[0][0]']               
                                                                                                  
 tf.reshape_3 (TFOpLambda)      (None, 320170, 1)    0           ['tf.reshape_2[0][0]']           
                                                                                                  
 tf.compat.v1.nn.conv1d_1 (TFOp  (None, 320170, 1)   0           ['tf.reshape_3[0][0]']           
 Lambda)                                                                                          
                                                                                                  
 tf.reshape_4 (TFOpLambda)      (None, 320170, 1)    0           ['tf.compat.v1.nn.conv1d_1[0][0]'
                                                                 ]                                
                                                                                                  
 tf.stack_1 (TFOpLambda)        (None, 320170, 2, 1  0           ['tf.reshape_2[0][0]',           
                                )                                 'tf.reshape_4[0][0]']           
                                                                                                  
 tf.reshape_5 (TFOpLambda)      (None, 640340, 1)    0           ['tf.stack_1[0][0]']             
                                                                                                  
 encode_0 (Sequential)          (None, 160084, 64)   8896        ['tf.reshape_5[0][0]']           
                                                                                                  
 encode_1 (Sequential)          (None, 40020, 128)   98688       ['encode_0[0][0]']               
                                                                                                  
 encode_2 (Sequential)          (None, 10004, 256)   393984      ['encode_1[0][0]']               
                                                                                                  
 encode_3 (Sequential)          (None, 2500, 512)    1574400     ['encode_2[0][0]']               
                                                                                                  
 encode_4 (Sequential)          (None, 624, 1024)    6294528     ['encode_3[0][0]']               
                                                                                                  
 sequential (Sequential)        (None, 624, 1024)    16785408    ['encode_4[0][0]']               
                                                                                                  
 tf.identity_4 (TFOpLambda)     (None, 624, 1024)    0           ['encode_4[0][0]']               
                                                                                                  
 tf.math.add (TFOpLambda)       (None, 624, 1024)    0           ['sequential[0][0]',             
                                                                  'tf.identity_4[0][0]']          
                                                                                                  
 decode_4 (Sequential)          (None, 2500, 512)    6294016     ['tf.math.add[0][0]']            
                                                                                                  
 tf.identity_3 (TFOpLambda)     (None, 2500, 512)    0           ['encode_3[0][0]']               
                                                                                                  
 tf.math.add_1 (TFOpLambda)     (None, 2500, 512)    0           ['decode_4[0][0]',               
                                                                  'tf.identity_3[0][0]']          
                                                                                                  
 decode_3 (Sequential)          (None, 10004, 256)   1574144     ['tf.math.add_1[0][0]']          
                                                                                                  
 tf.identity_2 (TFOpLambda)     (None, 10004, 256)   0           ['encode_2[0][0]']               
                                                                                                  
 tf.math.add_2 (TFOpLambda)     (None, 10004, 256)   0           ['decode_3[0][0]',               
                                                                  'tf.identity_2[0][0]']          
                                                                                                  
 decode_2 (Sequential)          (None, 40020, 128)   393856      ['tf.math.add_2[0][0]']          
                                                                                                  
 tf.identity_1 (TFOpLambda)     (None, 40020, 128)   0           ['encode_1[0][0]']               
                                                                                                  
 tf.math.add_3 (TFOpLambda)     (None, 40020, 128)   0           ['decode_2[0][0]',               
                                                                  'tf.identity_1[0][0]']          
                                                                                                  
 decode_1 (Sequential)          (None, 160084, 64)   98624       ['tf.math.add_3[0][0]']          
                                                                                                  
 tf.identity (TFOpLambda)       (None, 160084, 64)   0           ['encode_0[0][0]']               
                                                                                                  
 tf.math.add_4 (TFOpLambda)     (None, 160084, 64)   0           ['decode_1[0][0]',               
                                                                  'tf.identity[0][0]']            
                                                                                                  
 decode_0 (Sequential)          (None, 640340, 1)    8833        ['tf.math.add_4[0][0]']          
                                                                                                  
 tf.__operators__.getitem_1 (Sl  (None, 320170, 1)   0           ['decode_0[0][0]']               
 icingOpLambda)                                                                                   
                                                                                                  
 tf.reshape_6 (TFOpLambda)      (None, 320170, 1)    0           ['tf.__operators__.getitem_1[0][0
                                                                 ]']                              
                                                                                                  
 tf.compat.v1.pad_1 (TFOpLambda  (None, 320172, 1)   0           ['tf.reshape_6[0][0]']           
 )                                                                                                
                                                                                                  
 tf.compat.v1.nn.conv1d_2 (TFOp  (None, 320172, 1)   0           ['tf.compat.v1.pad_1[0][0]']     
 Lambda)                                                                                          
                                                                                                  
 tf.__operators__.getitem_2 (Sl  (None, 320170, 1)   0           ['tf.compat.v1.nn.conv1d_2[0][0]'
 icingOpLambda)                                                  ]                                
                                                                                                  
 tf.__operators__.getitem (Slic  (None, 320170, 1)   0           ['decode_0[0][0]']               
 ingOpLambda)                                                                                     
                                                                                                  
 tf.reshape_7 (TFOpLambda)      (None, 320170, 1)    0           ['tf.__operators__.getitem_2[0][0
                                                                 ]']                              
                                                                                                  
 tf.__operators__.add_1 (TFOpLa  (None, 320170, 1)   0           ['tf.__operators__.getitem[0][0]'
 mbda)                                                           , 'tf.reshape_7[0][0]']          
                                                                                                  
 tf.reshape_8 (TFOpLambda)      (None, 320170, 1)    0           ['tf.__operators__.add_1[0][0]'] 
                                                                                                  
 tf.math.multiply (TFOpLambda)  (None, 320170, 1)    0           ['tf.reshape_8[0][0]']           
                                                                                                  
 tf.__operators__.getitem_4 (Sl  (None, 160085, 1)   0           ['tf.math.multiply[0][0]']       
 icingOpLambda)                                                                                   
                                                                                                  
 tf.reshape_9 (TFOpLambda)      (None, 160085, 1)    0           ['tf.__operators__.getitem_4[0][0
                                                                 ]']                              
                                                                                                  
 tf.compat.v1.pad_2 (TFOpLambda  (None, 160087, 1)   0           ['tf.reshape_9[0][0]']           
 )                                                                                                
                                                                                                  
 tf.compat.v1.nn.conv1d_3 (TFOp  (None, 160087, 1)   0           ['tf.compat.v1.pad_2[0][0]']     
 Lambda)                                                                                          
                                                                                                  
 tf.__operators__.getitem_5 (Sl  (None, 160085, 1)   0           ['tf.compat.v1.nn.conv1d_3[0][0]'
 icingOpLambda)                                                  ]                                
                                                                                                  
 tf.__operators__.getitem_3 (Sl  (None, 160085, 1)   0           ['tf.math.multiply[0][0]']       
 icingOpLambda)                                                                                   
                                                                                                  
 tf.reshape_10 (TFOpLambda)     (None, 160085, 1)    0           ['tf.__operators__.getitem_5[0][0
                                                                 ]']                              
                                                                                                  
 tf.__operators__.add_2 (TFOpLa  (None, 160085, 1)   0           ['tf.__operators__.getitem_3[0][0
 mbda)                                                           ]',                              
                                                                  'tf.reshape_10[0][0]']          
                                                                                                  
 tf.reshape_11 (TFOpLambda)     (None, 160085, 1)    0           ['tf.__operators__.add_2[0][0]'] 
                                                                                                  
 tf.math.multiply_1 (TFOpLambda  (None, 160085, 1)   0           ['tf.reshape_11[0][0]']          
 )                                                                                                
                                                                                                  
 tf.__operators__.getitem_6 (Sl  (None, 160000, 1)   0           ['tf.math.multiply_1[0][0]']     
 icingOpLambda)                                                                                   
                                                                                                  
 tf.math.multiply_2 (TFOpLambda  (None, 160000, 1)   0           ['tf.__operators__.getitem_6[0][0
 )                                                               ]',                              
                                                                  'tf.math.reduce_std[0][0]']     
                                                                                                  
==================================================================================================
…
